…
an><br><span class="line">28</span><br><span class="line">29</span><br><span class="line">30</span><br><span class="line">31</span><br><span class="line">32</span><br></pre></td><td class="code"><pre><code class="hljs bash">==========================================================================================<br>Layer (<span class="hljs-built_in">type</span>:depth-idx)                   Output Shape              Param <span class="hljs-comment">#</span><br>==========================================================================================<br>HybirdSN                                 [256, 16]                 --<br>├─Sequential: 1-1                        [256, 32, 18, 19, 19]     --<br>│    └─Conv3d: 2-1                       [256, 8, 24, 23, 23]      512<br>│    └─ReLU: 2-2                         [256, 8, 24, 23, 23]      --<br>│    └─Conv3d: 2-3                       [256, 16, 20, 21, 21]     5,776<br>│    └─ReLU: 2-4                         [256, 16, 20, 21, 21]     --<br>│    └─Conv3d: 2-5                       [256, 32, 18, 19, 19]     13,856<br>│    └─ReLU: 2-6                         [256, 32, 18, 19, 19]     --<br>├─Sequential: 1-2                        [256, 64, 17, 17]         --<br>│    └─Conv2d: 2-7                       [256, 64, 17, 17]         331,840<br>│    └─ReLU: 2-8                         [256, 64, 17, 17]         --<br>├─Sequential: 1-3                        [256, 16]                 --<br>│    └─Linear: 2-9                       [256, 256]                4,735,232<br>│    └─ReLU: 2-10                        [256, 256]                --<br>│    └─Dropout: 2-11                     [256, 256]                --<br>│    └─Linear: 2-12                      [256, 128]                32,896<br>│    └─ReLU: 2-13                        [256, 128]                --<br>│    └─Dropout: 2-14                     [256, 128]                --<br>│    └─Linear: 2-15                      [256, 16]                 2,064<br>==========================================================================================<br>Total params: 5,122,176<br>Trainable params: 5,122,176<br>Non-trainable params: 0<br>Total mult-adds (G): 63.53<br>==========================================================================================<br>Input size (MB): 19.20<br>Forward/backward pass size (MB): 961.58<br>Params size (MB): 20.49<
…
